Model: "sequential"
+--------------------------------------------------------------------------------------+
| Layer (type)                         | Output Shape                |         Param # |
|--------------------------------------+-----------------------------+-----------------|
| random_translation                   | (None, 256, 256, 1)         |               0 |
| (RandomTranslation)                  |                             |                 |
|--------------------------------------+-----------------------------+-----------------|
| random_rotation (RandomRotation)     | (None, 256, 256, 1)         |               0 |
|--------------------------------------+-----------------------------+-----------------|
| random_zoom (RandomZoom)             | (None, 256, 256, 1)         |               0 |
|--------------------------------------+-----------------------------+-----------------|
| random_brightness (RandomBrightness) | (None, 256, 256, 1)         |               0 |
|--------------------------------------+-----------------------------+-----------------|
| random_contrast (RandomContrast)     | (None, 256, 256, 1)         |               0 |
|--------------------------------------+-----------------------------+-----------------|
| rescaling_1 (Rescaling)              | (None, 256, 256, 1)         |               0 |
|--------------------------------------+-----------------------------+-----------------|
| conv2d (Conv2D)                      | (None, 254, 254, 32)        |             320 |
|--------------------------------------+-----------------------------+-----------------|
| batch_normalization                  | (None, 254, 254, 32)        |             128 |
| (BatchNormalization)                 |                             |                 |
|--------------------------------------+-----------------------------+-----------------|
| max_pooling2d (MaxPooling2D)         | (None, 127, 127, 32)        |               0 |
|--------------------------------------+-----------------------------+-----------------|
| conv2d_1 (Conv2D)                    | (None, 125, 125, 64)        |          18,496 |
|--------------------------------------+-----------------------------+-----------------|
| batch_normalization_1                | (None, 125, 125, 64)        |             256 |
| (BatchNormalization)                 |                             |                 |
|--------------------------------------+-----------------------------+-----------------|
| max_pooling2d_1 (MaxPooling2D)       | (None, 62, 62, 64)          |               0 |
|--------------------------------------+-----------------------------+-----------------|
| conv2d_2 (Conv2D)                    | (None, 60, 60, 128)         |          73,856 |
|--------------------------------------+-----------------------------+-----------------|
| batch_normalization_2                | (None, 60, 60, 128)         |             512 |
| (BatchNormalization)                 |                             |                 |
|--------------------------------------+-----------------------------+-----------------|
| max_pooling2d_2 (MaxPooling2D)       | (None, 30, 30, 128)         |               0 |
|--------------------------------------+-----------------------------+-----------------|
| conv2d_3 (Conv2D)                    | (None, 28, 28, 256)         |         295,168 |
|--------------------------------------+-----------------------------+-----------------|
| batch_normalization_3                | (None, 28, 28, 256)         |           1,024 |
| (BatchNormalization)                 |                             |                 |
|--------------------------------------+-----------------------------+-----------------|
| max_pooling2d_3 (MaxPooling2D)       | (None, 14, 14, 256)         |               0 |
|--------------------------------------+-----------------------------+-----------------|
| flatten (Flatten)                    | (None, 50176)               |               0 |
|--------------------------------------+-----------------------------+-----------------|
| dense (Dense)                        | (None, 512)                 |      25,690,624 |
|--------------------------------------+-----------------------------+-----------------|
| dropout (Dropout)                    | (None, 512)                 |               0 |
|--------------------------------------+-----------------------------+-----------------|
| dense_1 (Dense)                      | (None, 5)                   |           2,565 |
+--------------------------------------------------------------------------------------+
 Total params: 26,082,949 (99.50 MB)
 Trainable params: 26,081,989 (99.49 MB)
 Non-trainable params: 960 (3.75 KB)
 Recall: 0.9890710382513661
 Precision: 0.9672131147540983
 F1-score-: 0.9748102139406488